[ INFO : 2022-07-19 20:27:56,586 ] - DeepCCA(
  (model1): MlpNet(
    (layers): ModuleList(
      (0): Sequential(
        (0): Linear(in_features=6, out_features=24, bias=True)
        (1): Sigmoid()
        (2): BatchNorm1d(24, eps=1e-05, momentum=0.1, affine=False, track_running_stats=True)
      )
      (1): Sequential(
        (0): Linear(in_features=24, out_features=24, bias=True)
        (1): Sigmoid()
        (2): BatchNorm1d(24, eps=1e-05, momentum=0.1, affine=False, track_running_stats=True)
      )
      (2): Sequential(
        (0): Linear(in_features=24, out_features=24, bias=True)
        (1): Sigmoid()
        (2): BatchNorm1d(24, eps=1e-05, momentum=0.1, affine=False, track_running_stats=True)
      )
      (3): Sequential(
        (0): Linear(in_features=24, out_features=2, bias=True)
      )
    )
  )
  (model2): MlpNet(
    (layers): ModuleList(
      (0): Sequential(
        (0): Linear(in_features=8, out_features=24, bias=True)
        (1): Sigmoid()
        (2): BatchNorm1d(24, eps=1e-05, momentum=0.1, affine=False, track_running_stats=True)
      )
      (1): Sequential(
        (0): Linear(in_features=24, out_features=24, bias=True)
        (1): Sigmoid()
        (2): BatchNorm1d(24, eps=1e-05, momentum=0.1, affine=False, track_running_stats=True)
      )
      (2): Sequential(
        (0): Linear(in_features=24, out_features=24, bias=True)
        (1): Sigmoid()
        (2): BatchNorm1d(24, eps=1e-05, momentum=0.1, affine=False, track_running_stats=True)
      )
      (3): Sequential(
        (0): Linear(in_features=24, out_features=2, bias=True)
      )
    )
  )
)
[ INFO : 2022-07-19 20:27:56,587 ] - RMSprop (
Parameter Group 0
    alpha: 0.99
    centered: False
    eps: 1e-08
    lr: 0.001
    momentum: 0
    weight_decay: 1e-05
)
[ INFO : 2022-07-19 20:27:58,167 ] - Epoch 1: val_loss improved from 0.0000 to -0.1517, saving model to checkpoint.model
[ INFO : 2022-07-19 20:27:58,172 ] - Epoch 1/100 - time: 1.58 - training_loss: -0.6224 - val_loss: -0.1517
…
