[ INFO : 2022-07-22 17:34:46,398 ] - DeepCCA(
  (model1): MlpNet(
    (layers): ModuleList(
      (0): Sequential(
        (0): Linear(in_features=6, out_features=48, bias=True)
        (1): Sigmoid()
        (2): BatchNorm1d(48, eps=1e-05, momentum=0.1, affine=False, track_running_stats=True)
      )
      (1): Sequential(
        (0): Linear(in_features=48, out_features=48, bias=True)
        (1): Sigmoid()
        (2): BatchNorm1d(48, eps=1e-05, momentum=0.1, affine=False, track_running_stats=True)
      )
      (2): Sequential(
        (0): Linear(in_features=48, out_features=48, bias=True)
        (1): Sigmoid()
        (2): BatchNorm1d(48, eps=1e-05, momentum=0.1, affine=False, track_running_stats=True)
      )
      (3): Sequential(
        (0): BatchNorm1d(48, eps=1e-05, momentum=0.1, affine=False, track_running_stats=True)
        (1): Linear(in_features=48, out_features=14, bias=True)
      )
    )
  )
  (model2): MlpNet(
    (layers): ModuleList(
      (0): Sequential(
        (0): Linear(in_features=8, out_features=48, bias=True)
        (1): Sigmoid()
        (2): BatchNorm1d(48, eps=1e-05, momentum=0.1, affine=False, track_running_stats=True)
      )
      (1): Sequential(
        (0): Linear(in_features=48, out_features=48, bias=True)
        (1): Sigmoid()
        (2): BatchNorm1d(48, eps=1e-05, momentum=0.1, affine=False, track_running_stats=True)
      )
      (2): Sequential(
        (0): Linear(in_features=48, out_features=48, bias=True)
        (1): Sigmoid()
        (2): BatchNorm1d(48, eps=1e-05, momentum=0.1, affine=False, track_running_stats=True)
      )
      (3): Sequential(
        (0): BatchNorm1d(48, eps=1e-05, momentum=0.1, affine=False, track_running_stats=True)
        (1): Linear(in_features=48, out_features=14, bias=True)
      )
    )
  )
)
[ INFO : 2022-07-22 17:34:46,399 ] - RMSprop (
Parameter Group 0
    alpha: 0.99
    centered: False
    eps: 1e-08
    lr: 0.001
    momentum: 0
    weight_decay: 1e-05
)
[ INFO : 2022-07-22 17:34:46,464 ] - Epoch 1: val_loss improved from 0.0000 to -0.4427, saving model to checkpoint.model
[ INFO : 2022-07-22 17:34:46,470 ] - Epoch 1/100 - time: 0.07 - training_loss: -1.4989 - val_loss: -0.4427
…
