[ INFO : 2022-07-20 17:42:23,674 ] - DeepCCA(
  (model1): MlpNet(
    (layers): ModuleList(
      (0): Sequential(
        (0): Linear(in_features=6, out_features=48, bias=True)
        (1): ReLU()
        (2): BatchNorm1d(48, eps=1e-05, momentum=0.1, affine=False, track_running_stats=True)
      )
      (1): Sequential(
        (0): Linear(in_features=48, out_features=48, bias=True)
        (1): ReLU()
        (2): BatchNorm1d(48, eps=1e-05, momentum=0.1, affine=False, track_running_stats=True)
      )
      (2): Sequential(
        (0): Linear(in_features=48, out_features=48, bias=True)
        (1): ReLU()
        (2): BatchNorm1d(48, eps=1e-05, momentum=0.1, affine=False, track_running_stats=True)
      )
      (3): Sequential(
        (0): Linear(in_features=48, out_features=14, bias=True)
      )
    )
  )
  (model2): MlpNet(
    (layers): ModuleList(
      (0): Sequential(
        (0): Linear(in_features=8, out_features=48, bias=True)
        (1): ReLU()
        (2): BatchNorm1d(48, eps=1e-05, momentum=0.1, affine=False, track_running_stats=True)
      )
      (1): Sequential(
        (0): Linear(in_features=48, out_features=48, bias=True)
        (1): ReLU()
        (2): BatchNorm1d(48, eps=1e-05, momentum=0.1, affine=False, track_running_stats=True)
      )
      (2): Sequential(
        (0): Linear(in_features=48, out_features=48, bias=True)
        (1): ReLU()
        (2): BatchNorm1d(48, eps=1e-05, momentum=0.1, affine=False, track_running_stats=True)
      )
      (3): Sequential(
        (0): Linear(in_features=48, out_features=14, bias=True)
      )
    )
  )
)
[ INFO : 2022-07-20 17:42:23,674 ] - RMSprop (
Parameter Group 0
    alpha: 0.99
    centered: False
    eps: 1e-08
    lr: 0.001
    momentum: 0
    weight_decay: 1e-05
)
[ INFO : 2022-07-20 17:42:23,797 ] - Epoch 1: val_loss improved from 0.0000 to -0.4427, saving model to checkpoint.model
[ INFO : 2022-07-20 17:42:23,800 ] - Epoch 1/1000 - time: 0.12 - training_loss: -2.0400 - val_loss: -0.4427
…
